bp/simple_bp.onnx (onnx, 642 bytes, 3 tensors)

hidden.weight f4 [10, 1]
000000 19 ac 69 bf e0 69 44 3f c4 58 6c 3e 3f 09 87 3e
       -0.91278225 0.7672405 0.23080736 0.26374242
000010 34 5d 7c 3f a9 4b 90 3f f9 64 68 be eb ef 7e bf
       0.98579717 1.127309 -0.22694768 -0.99584836
000020 68 01 32 3e 5f 44 96 bf
       0.17383349 -1.1739615

hidden.bias f4 [10]
000000 d1 12 ca 3b 0b 5c 0d 40 2c 53 98 3e d6 e4 ba 3e
       0.006166794 2.2087429 0.29750955 0.36502713
000010 db 6b 4b bf 99 24 50 c0 a8 17 3e be f7 f0 cd be
       -0.7946145 -3.2522337 -0.18563712 -0.40222904
000020 57 ba 98 be af 6d d0 bf
       -0.29829666 -1.6283473

output.weight f4 [1, 10]
000000 cb 03 20 bf f2 15 34 bf 65 6f 6a be 97 49 49 bf
       -0.6250579 -0.70345986 -0.22894056 -0.78627914
000010 aa a1 28 3f 2c c7 22 bf d3 36 8a 3f d8 3d 2e bf
       0.6587168 -0.6358516 1.0797981 -0.68063116
000020 97 c3 f4 be e4 af cb be
       -0.47805473 -0.3978263
